trained_models/a2c/SamSingle-v0.pt (torch, 196415 bytes, 15 tensors)

weight_ih_l0 f4 [192, 88]
00000000: 80a8 093c 0baf cb3d 92bc 413d e684 72be
00000010: bf70 9dbd 1f61 9d3d f58d d8bc 500a 02be
00000020: ec65 913d ceca 193d 7122 963b db68 5e3d
00000030: 2887 603d 3fba a13d 76a8 273e cb28 9fbd
00000040: fd54 9fbd 99c1 a63d 3c06 f4bb 72d5 dbbd
00000050: 1c91 c4bd c237 713d 960e 4ebb c02e af3d
00000060: 4697 70bd d6ed 87bd c972 39be e02c 083d
00000070: c751 57bd dcde 0a3b 1bb4 343e 3c70 6a3d
00000080: ebd4 3bbd 1caf b0bd d2a3 d53c ba08 e33c
00000090: 901e 4f3d f30b eb3d 08ad 08be cf7d a3bd
000000a0: 6313 793d 08e0 37bb a44c 0d3c 0eee 0dbd
000000b0: 8d4a 24bd 5872 f73d a6e7 103e 4b1e 8cbd
000000c0: 2bac 543d e1ad 4b3d a74a 1f3e 88fe df3c
000000d0: b5c0 54bc b86c 8fbc 530d 373d 696a 2cbc
000000e0: 50a8 41bd 4c34 543d 5d3f 883d 4dfe 70bc
000000f0: 17ea 663c 3bd7 32bd b97b a33c fbf4 063e
00000100: 1f9a 99bc dddb 37be 60f6 b4bc d010 fbbc
00000110: ac3f 89bd a14b 85bc f7b3 13bc 5dfd a6bd
00000120: 6a35 fdbc c33b 503d a5e9 323b 8ed6 83bc
00000130: 2868 073e 2b2e 353d 9f77 efbd 5fe2 46bd
00000140: 020c a5bd 4208 403d 733b 04bc 7264 91bd
00000150: 2fc9 233e 2890 7abd 8a70 5e3d d620 203d
00000160: ddd2 7fbd c3e8 8e3d ae7f 2abc 80c6 ee3d
00000170: ae85 3ebd 8e12 4dbe b749 11bd e6f0 403c
00000180: dc70 b8bb 9417 403b 91b6 8cbd 7766 c23c
00000190: be5b 35be 1ecd 9a3d 7597 113d 8a18 c7bc
000001a0: 4d8f 0abe 38a3 923d a963 50bd 2970 44bd
000001b0: 43bc 9ebd a3a6 69bb dbef 093e 221e 5bbc
000001c0: 6b5d 863d 0889 0bbe afac b43d 322c bcbd
000001d0: c2e7 73bd 48ea f5bd 4c4e 3dbe 4d72 983d
000001e0: 7d6e 34bd 33fa fabc d86e d93d 91da 543d
000001f0: 1944 cd3d 3697 503d aa1b 813c b038 e13a
00000200: 3d65 7a3d 1abb d1bc 3b63 d0bd 6193 053e
00000210: 612d 943d b9f9 c4bd 0ae1 ab3d 448c 31be
00000220: b560 ba3d 1b9e 8abc 3983 d53c 6dc0 a8bc
00000230: 9abe 553d 8589 b13c 293f d7bc c2ad f1bc
00000240: f99e a5bd 7fc2 843c ad28 a3bb 1c78 2b3e
00000250: 7a7a acbd 3bc8 5b3d 1892 bbbc bc79 74bd
00000260: 8bd9 9dbd fcef aabd 40ee bc3d 8656 19be
00000270: aaaf aabd a364 ad3d c8e2 a93d 5c7a 123d
00000280: d282 a23d 1fb4 f23c 234c 253e b6a9 b83c
00000290: b812 293d d720 8f3d 458d 8cbc 5e47 823c
000002a0: 1abb bcbd cf43 1d3d cbf0 97bd 20ee 75bd
000002b0: c4fa 9f3d d23e b23c 0872 1abd 5aa6 f1bd
000002c0: e248 1e3e e766 8c3d fb38 553c ee30 263d
000002d0: 8def 44bc e5bc 133e 5082 e33c 3661 bd3d
000002e0: 6633 eabd b841 d23b 147a a0bd 67ca 053c
000002f0: b7aa 153d 6e99 163e f841 643e 009a d63d
00000300: 9774 b43c 4ad9 b93d 3594 8a3d 921b 27bd
00000310: 2a45 1fbc 69f5 fbbd e922 bebb 7ca9 c13d
00000320: 2dd6 3d3e 8715 933d 09b3 233e 020f 04ba
00000330: 4d41 c33d 2778 173d db3a c23d 96c3 5d3e
00000340: 54dd 953d 035a dc3d b59a 1e3d c45e 083e
00000350: 3a76 6ebd 7b80 86bc 33db 0bbc 67a9 243e
00000360: e5a9 db3d 9c27 193e c1f0 fe3c e0b2 7a3d
00000370: ec3f 283e 3e15 b7bd 4f09 3f3e 5bec 1bbe
00000380: b3ec 853d a81f 4d3b 7790 45be 9f2b 593d
00000390: 62e1 8cbd 19e4 b33c f52e 9cbd 3afc d03d
000003a0: 1316 26bb b2cd 343e 7911 cf3d dc52 583e
000003b0: f51a 043c 9100 9c3d f75a 223d 7f1e 2bbd
000003c0: 72f3 9d3d 3892 9d3d 885c bc3d 7a68 dd3c
000003d0: 1104 673d 47dc 3ebd f4f3 673d 579a 0e3e
000003e0: 2411 d93c 3f2a d4bc 336d de3c 57c5 dfbc
000003f0: 7b62 47bc c258 b5bd fa51 e43c 7273 3bbc
0.00840199 0.09945496 0.047298975 -0.23683509 -0.0768752 0.0768454 -0.026434878 -0.12699246
0.07099518 0.037546925 0.0045817425 0.054299217 0.054816395 0.07896852 0.16372856 -0.077714525
-0.07779882 0.081423946 -0.0074470323 -0.10734071 -0.0959799 0.058891065 -0.00314418 0.08553839
-0.058738016 -0.066371605 -0.18110193 0.03324592 -0.052568223 0.0021189963 0.1764683 0.05723594
-0.04585735 -0.086271495 0.026079092 0.027714122 0.050566256 0.114768885 -0.13347256 -0.079829805
0.060809504 -0.0028057117 0.00862423 -0.034650855 -0.04011016 0.12082356 0.14150867 -0.068417154
0.051922005 0.04972637 0.15555821 0.02734305 -0.012985398 -0.017507896 0.04469044 -0.010523417
-0.047279656 0.051807687 0.066527106 -0.0147090675 0.014093897 -0.04366229 0.019956456 0.1317939
-0.018750248 -0.17954965 -0.022090137 -0.030647665 -0.067015976 -0.016271414 -0.009015075 -0.08153794
-0.030909259 0.050838243 0.0027299908 -0.016093519 0.13223326 0.044233482 -0.11692738 -0.048555728
-0.08058931 0.046882875 -0.008070814 -0.070992365 0.15994714 -0.061172634 0.054306544 0.039093815
-0.062456954 0.069779895 -0.010406418 0.116589546 -0.046514206 -0.2002661 -0.03547069 0.011776185
-0.0056286883 0.0029310929 -0.06870759 0.0237305 -0.17710778 0.07558654 0.03554483 -0.024303693
-0.13531227 0.07160038 -0.050876293 -0.047958527 -0.07750752 -0.0035652302 0.13470404 -0.013373883
0.06560787 -0.13626492 0.08821999 -0.09188117 -0.059547193 -0.12007576 -0.18486899 0.07443676
-0.044050682 -0.030636882 0.10616845 0.051966254 0.10022754 0.050925456 0.015760262 0.0017183032
0.061131705 -0.025601912 -0.10175177 0.13044502 0.07235218 -0.09617943 0.08392532 -0.17338663
0.09100477 -0.016921094 0.026063548 -0.020599568 0.052183725 0.02167202 -0.026275234 -0.0295018
-0.08086962 0.016206024 -0.004979214 0.16745037 -0.08421798 0.05365775 -0.022896811 -0.059686407
-0.07707509 -0.08346555 0.0922513 -0.14974412 -0.083342865 0.084664606 0.08295208 0.035761222
0.07935108 0.029626904 0.16142325 0.022541862 0.041277617 0.069886856 -0.017157206 0.015903171
-0.09215374 0.038394745 -0.074189745 -0.060041547 0.078115016 0.02175847 -0.037706405 -0.11799307
0.1545749 0.068555646 0.0130140735 0.040574007 -0.012020004 0.14427526 0.027772099 0.09247057
-0.11435585 0.0064165257 -0.078357846 0.008165932 0.03653976 0.14706966 0.2229079 0.10478592
0.02202825 0.09074648 0.067665495 -0.040797777 -0.00972108 -0.12302668 -0.0058025015 0.09456155
0.18538733 0.071818404 0.15986265 -0.0005037637 0.095339395 0.03697982 0.09483882 0.21656641
0.073176056 0.10759356 0.03872176 0.133174 -0.05821822 -0.016418686 -0.008536148 0.16080247
0.10725764 0.14956516 0.03112066 0.061205745 0.16430634 -0.089395985 0.18655895 -0.15226881
0.065392874 0.0031299386 -0.1929339 0.053020116 -0.06878926 0.021959351 -0.07626144 0.102043584
-0.0025342747 0.17656592 0.101107545 0.21125358 0.008063068 0.076172955 0.039637532 -0.04177713
0.07712449 0.07693905 0.091973364 0.027027357 0.056400362 -0.04659679 0.056629136 0.13926063
0.026497431 -0.02589905 0.02715168 -0.027315779 -0.012169476 -0.0885482 0.02787112 -0.0114410985

weight_hh_l0 f4 [192, 64]
00000000: 458b 263e bf59 123d 4e2c cf3d 0243 183e
00000010: 2e59 453d f709 24bd 1341 ffbc ea19 b8bb
00000020: 6143 a9bd e89c 3e3c 933e 25bd 71e9 813d
00000030: 1f04 923d f9ea b63c 0592 84be 8aad 9eba
00000040: 5c44 1a3c 9051 93bd 56f2 04be 5d53 543e
00000050: 6a1f c8bd 2fa1 4a3d 2c9a 033e dde0 ce3d
00000060: 61b0 a43d 7911 1bbe 572b 61bd aded feb9
00000070: be0f 2bbc 3686 b8bd 689c b0bd e98c d73d
00000080: 3f6c 293d adeb 2f3e 582e 6d3d 54f2 8dbd
00000090: fa27 903d 0526 a33a c549 e43d 9dd9 30bd
000000a0: 021b aabd 3f8e 7fbd aa41 fd3d 603c b53d
000000b0: 3eb6 98bd 9a6e 2bbe 55e9 8a3d f3fa 5bbc
000000c0: 7f26 063d 9ad7 1dbd 0c70 8dbd b290 273e
000000d0: 4e98 bbbc 388e 6c3d 9df6 3cbd 1e4d 093e
000000e0: 9817 e2bd a185 113d 464d 98bd f4b3 66bc
000000f0: 152a b8bc b27b cbbd 1ca9 aabc 4f12 53bd
00000100: c046 f53d 17fc 9cbc d16b 03bd 206c 14bc
00000110: 26a4 8d3d 90a8 fa3c cdb9 993c d5f1 debd
00000120: dfea abbd f46a d73d f269 b5bd 59ef 18be
00000130: a4e0 fabc 75b1 8d3d 9871 163d 2475 7b3e
00000140: 994f ccbd ff77 37be 00b8 23be b060 373e
00000150: bb0e c33d 9118 843c 1a95 c13d 41a1 b3bd
00000160: fbd3 88bc 02da c5bd b257 1abe 41b7 953c
00000170: 2973 f2bc 8a40 75bd 0226 04bc 1e88 9ebc
00000180: 1c53 c93c 2b20 683d 2e76 9d3d 03af 6bbc
00000190: 0fef ac3b 2652 753d ece8 0ebb 4d28 d03d
000001a0: 4ef5 0bbe d474 293d a68e 3abd 3423 b8bd
000001b0: 5061 69bd 91a2 853c 8dc1 3bbb 6cdd 91bb
000001c0: 6f4b a63d 4dc0 863d 5d97 acbd d9d3 cfbb
000001d0: bd0d 45bd d64a 1c3c 2f36 ffbb 86ef 97bd
000001e0: 9cc7 9abd 6f47 053c d331 cbbd f8e9 a43d
000001f0: b360 30bd 5b34 e6bc 7a48 d73d 2f07 34bc
00000200: e59f 51bd 382f 2abe f962 16bd a663 6bbd
00000210: ac71 123e b16e 1dbd 8e1a 8dbd a687 a5bd
00000220: e456 03bd d701 57bd 7ecc 0f3e 29f8 f5bd
00000230: 966b 893c ba3b 62bb 24d3 aeba 76bc 853d
00000240: c869 ddbd eceb 273d adbd 573d 568c 2b3c
00000250: 7807 5a3e a175 80bd 63c4 b63c eb54 6b3d
00000260: 97b9 9b3d 4ddc 923d 4a55 fabc e59b f73c
00000270: 1977 5d3d 3980 a33d 3f73 8f3c c7c4 f63b
00000280: 350d ccbd 2b0d bfbc 3092 4cbd 75f7 9d3d
00000290: 6765 32be 5acc e5bb e9ed acbd 5e5e a2bd
000002a0: 9a55 9e3d e93d 75bc 1356 a8b9 8463 70bc
000002b0: b0a0 c8bd ebdf a3bc fa74 373c 42d7 e83d
000002c0: 83aa 1c3d aceb d8bd 9709 b13d 2033 72bd
000002d0: a75a d03d 4d8c 5abe 2c54 a6bd ad21 803d
000002e0: e9a6 b23d dedc 0ebe ac50 a8bd f6fb c53c
000002f0: 26ff bfbd 0605 9fbd 3700 9c3d 9e36 423c
00000300: 40d7 6d3e 9174 18bc 2ac2 8e3d 0465 9bbd
00000310: 1189 07be fc7b 71bc 066d b1bd 1d2a ec3c
00000320: 0227 65bd 5c47 e4bd bbcf 8a3d bd64 c9bd
00000330: 387e e1bb 8f1c 2f3e 4219 e63c 33ea 4cbd
00000340: 5d08 1b3c 2f50 443c b3dd 37bd 4315 923d
00000350: 56ce 643d b2c2 aa3d 6897 0e3e 7e44 3ebe
00000360: 9d0e b43d 3a83 733c 12fd 10be f0c5 603e
00000370: 1664 fc3d e937 babd 0056 36bd c715 95be
00000380: 8da4 c0bd d877 013e 10ce 1bbc 4be4 06be
00000390: 6dc1 a5bc 9fb0 20be 749c 163e 2631 5a3c
000003a0: f2de 393d 6837 033e f36e 35be 2f2a 193d
000003b0: dd96 a3bd d2fc e33d 0e47 21bd 89a6 0dbd
000003c0: f41e 0cbe 1e99 0abe 71ee 42be 1a17 8d3b
000003d0: 0836 203d 4b85 1cbd bce7 863d 14dc adbd
000003e0: 79a5 65bd b5e6 aebc f704 1e3e 160c 083e
000003f0: 154d ddbd 6861 7bbc deaf 49bb 122f 52bd
0.16264065 0.03573012 0.10115872 0.14869311 0.04818075 -0.040048566 -0.03115896 -0.0056183236
-0.08264805 0.011634089 -0.04034288 0.063433535 0.07129692 0.02232884 -0.25892654 -0.0012106162
0.009415712 -0.07193291 -0.12983069 0.20734926 -0.09771617 0.049470123 0.1285178 0.10101483
0.08041454 -0.15143384 -0.054972973 -0.00048623738 -0.010440765 -0.09009974 -0.08623582 0.10524923
0.041362997 0.17179747 0.057905525 -0.06930986 0.07038875 0.0012447244 0.11146883 -0.043176282
-0.083059326 -0.062391516 0.1236604 0.08849406 -0.07456635 -0.1674141 0.06782786 -0.01342653
0.032751556 -0.03853569 -0.06906137 0.1636379 -0.022899773 0.057752818 -0.046133626 0.13408324
-0.110396564 0.03552783 -0.07436614 -0.01408099 -0.022481004 -0.099357024 -0.02083259 -0.051531132
0.11976385 -0.019163175 -0.032085244 -0.009058982 0.069160745 0.030597955 0.018765355 -0.108859695
-0.083944075 0.105184466 -0.08858098 -0.14935054 -0.030624695 0.06918613 0.036729425 0.24556404
-0.099761195 -0.17916869 -0.15988159 0.17907977 0.09524294 0.016124995 0.09452267 -0.08770991
-0.016702643 -0.09660722 -0.15072516 0.018275859 -0.029595928 -0.059876002 -0.008065702 -0.019352015
0.024575762 0.056671303 0.076885566 -0.014384988 0.0052775214 0.059892796 -0.0021806313 0.10163937
-0.13667795 0.04137118 -0.045546196 -0.089910895 -0.05697757 0.01631287 -0.00286493 -0.0044514444
0.081198566 0.06579647 -0.08427308 -0.006342393 -0.048108805 0.009539327 -0.0077884416 -0.07418732
-0.07557604 0.008134707 -0.099216126 0.080524385 -0.04306097 -0.028101137 0.10511871 -0.010988041
-0.051177878 -0.16619575 -0.03671548 -0.05746808 0.14301175 -0.03843564 -0.068898305 -0.080825135
-0.032065287 -0.05249199 0.14042851 -0.120102234 0.016774934 -0.0034520463 -0.0013338071 0.06530087
-0.10811192 0.040996477 0.052671123 0.01047047 0.21291912 -0.06272436 0.022310441 0.05745403
0.07603758 0.07170925 -0.030558247 0.030225703 0.05406866 0.07983441 0.017511008 0.007530782
-0.099634565 -0.023321709 -0.049944103 0.07713214 -0.17421494 -0.007012886 -0.08443815 -0.07928155
0.07731171 -0.014968374 -0.00032107587 -0.014672164 -0.09796274 -0.020004233 0.011197323 0.11369182
0.03824855 -0.10591826 0.08644407 -0.059130788 0.101735406 -0.21342583 -0.08121523 0.06256423
0.08723242 -0.13951442 -0.08218512 0.024167996 -0.093748376 -0.0776463 0.076172285 0.011853842
0.23226643 -0.009305135 0.069706276 -0.075876266 -0.1323588 -0.014739033 -0.08663373 0.028828675
-0.055945404 -0.11146423 0.06777903 -0.098336674 -0.0068815015 0.17100738 0.028088216 -0.050028037
0.009462443 0.011982008 -0.044889163 0.071329616 0.05586084 0.083379164 0.13924944 -0.18580815
0.0879185 0.01486283 -0.14159039 0.21950507 0.123237774 -0.09092695 -0.04451561 -0.29118177
-0.094063856 0.12643373 -0.009509578 -0.13173024 -0.020233834 -0.15692376 0.1470812 0.013317382
0.045378633 0.12814105 -0.17718105 0.037393745 -0.07987759 0.11132206 -0.039374404 -0.03458265
-0.13683683 -0.13534972 -0.1903627 0.0043057324 0.03911403 -0.038213056 0.065871686 -0.08489242
-0.05606601 -0.021350244 0.15431581 0.1328586 -0.10805718 -0.015343048 -0.003077499 -0.05131442

bias_ih_l0 f4 [192]
00000000: c5f6 ef3d 7ce4 a53c d33d 1b3d 6c83 8a3d
00000010: c48e 743b e54e e1bc cd53 813d 6994 c8bc
00000020: c6e1 64bd 9667 1c3d 1138 08bc 71af e03d
00000030: 7d8e 6f3d 9286 7d3d e8a8 4d3d bcf4 9ebc
00000040: 93f1 433c 13d8 273e 0280 083d e756 2cbd
00000050: b363 a73d 4121 643d 99d0 463d 8547 aa3c
00000060: b4ae b3bd f976 19bb 8aeb a2bc dca6 c13d
00000070: 6254 903c 8809 3f3d 7783 8fba 5436 4e3d
00000080: 3896 973d 6e13 17bd 6e0b 353d 3182 b63d
00000090: 89b3 393d d968 443c 7a4b 863d 1162 7c3d
000000a0: bfbd e73c 3f93 203d 20b9 923b 426a 793c
000000b0: 3bed aa3d 6a62 54bd e892 a2bb 1b9b 1a3c
000000c0: 2ff5 083e 6714 853d 8f52 df3d f57a 473c
000000d0: 3443 4dbd 7ad0 b53c dacc 923d d5fa 19bc
000000e0: 5bb1 0d3d ae96 afbd bbd4 fc3c a186 11bd
000000f0: 9222 e53d dd5d 903d 1548 ba3d 36b3 193d
00000100: c10e a2bd 25ad 133d bd88 c7bd f87e 89bd
00000110: 139b d3bc df88 6fbd 3de8 90bb 7042 8ebd
00000120: bec7 35bd fe08 003c 9c80 133d b09c eeb8
00000130: ef20 96bc 5433 de3c 4ab4 273d 928e 7c3d
00000140: d7eb cdbb 946b a1bc 9258 6ebd 490b 4dbd
00000150: 22b6 8c3c 2bb6 cdbc 320b f0bc 60c7 ccbd
00000160: 1d6f 03bd 395b 81bc 139b 7cbd e21b dfbd
00000170: 76ab 083c 8a7e 1e3c 5b64 c4bd 0069 593d
00000180: 9ab5 c3bd bb3c a4bd f868 e7bd a2e8 1bbe
00000190: e27b d93c c488 95bd d9ed 4abd 769f 063d
000001a0: 3f3c 9bbd 3254 99bd 7457 0bbd 2d68 54bd
000001b0: cf51 50bc 0fae 76bd 12e0 b9bc 7f7b 02be
000001c0: de3c 1fbd 0e3e 993c bdd3 24bd 1c52 e4bd
000001d0: 5973 dabd 4eed 0abd 3e21 96bd 0ab3 f5bd
000001e0: 2360 25be 113c 65bd cbfd b33c 2593 03bd
000001f0: 92ce 923c 0e20 6abd f48d 92bd 84ab 8fbd
00000200: 17ee 553e 54a4 813c 0fab ed3d 297e 58bd
00000210: 8096 13bb 21d5 f2bc 8ece 81bd b180 6c3b
00000220: cdf6 16be 78db 61bd d629 143e 7c31 dbbd
00000230: ca5e cebd 93db 223e 9d3e 94bd aa91 14be
00000240: 75b6 95bd 63a3 053e ab50 fcbc 698a 30bd
00000250: 28b0 33be 22b0 bf3b e668 e53d bb78 383d
00000260: 32b3 473c 4fb2 69bb 1f4a 32ba 333c 343e
00000270: c15c 2b3e bb8c c5bd 6fb3 1e3e d556 0fbe
00000280: 0a14 3ebe d6ee 0ebb ebd9 843c 259d b0bd
00000290: b42e 1fbe 861c 21be 527a 083e 08bf 3a3e
000002a0: 2942 aa3d 975d e73d f6b0 1b3e 4661 ebbc
000002b0: baaa 44be 264d 01bc d2e7 8fbb 7f6b 1b3d
000002c0: 8aac 95bd 89b2 ffbd 52ee 77bd 33f0 93bd
000002d0: 7f01 393d 07a9 8ebd 917f 0cbe 2ae7 b2bd
000002e0: cad9 9b3c 16c5 72bd 8df5 0b3e 83f3 ab3d
000002f0: 9e51 48be dd96 e73d e7b6 ef3d 4c1d a5bd
0.117169894 0.020250551 0.037900757 0.06763348 0.003731654 -0.02750344 0.06314812 -0.02448483
-0.055879377 0.038184725 -0.0083141485 0.10970963 0.058485497 0.061895914 0.05020991 -0.019403808
0.011959451 0.1639102 0.033325203 -0.042075064 0.08173313 0.055695776 0.048538778 0.020786056
-0.08773556 -0.002341686 -0.019887704 0.09455654 0.017618362 0.04663995 -0.0010949214 0.05034478
0.07401699 -0.036883764 0.044200353 0.08911551 0.045337234 0.011987888 0.06557365 0.06161696
0.02828872 0.039202925 0.004477635 0.015223088 0.08346029 -0.051851667 -0.0049613602 0.009436394
0.1337478 0.06498032 0.10904419 0.012175311 -0.050112918 0.022194136 0.071679786 -0.009398182
0.034592967 -0.08573662 0.030863157 -0.035528783 0.111882344 0.07049153 0.0909578 0.037524424
-0.0791297 0.036053795 -0.09742878 -0.067136705 -0.025830781 -0.05848014 -0.004422216 -0.06946266
-0.044379942 0.007814644 0.036011323 -0.0001137791 -0.01832625 0.027124085 0.04094342 0.061659403
-0.006284218 -0.019704618 -0.058189936 -0.05005959 0.017176691 -0.025111279 -0.029302213 -0.09998965
-0.032088388 -0.015790569 -0.061671328 -0.1089399 0.008341661 0.009673724 -0.09589454 0.05307865
-0.09556122 -0.08019396 -0.11299318 -0.15225461 0.02654833 -0.073014766 -0.049543235 0.032866918
-0.075798504 -0.07486762 -0.03401895 -0.051857162 -0.012714817 -0.06022459 -0.022689853 -0.12742423
-0.038876407 0.018706348 -0.04024099 -0.111484736 -0.10666532 -0.033917718 -0.07330559 -0.119970396
-0.16149954 -0.055965487 0.021971604 -0.03212275 0.017920766 -0.057159476 -0.07155982 -0.07015136
0.20891605 0.015825428 0.116048925 -0.05285469 -0.0022520125 -0.029642643 -0.06338225 0.0036087448
-0.14742585 -0.055140942 0.14469084 -0.10702798 -0.10076673 0.15904073 -0.07238505 -0.14508691
-0.073101915 0.13050608 -0.030800184 -0.04310075 -0.17547667 0.005849854 0.112016484 0.045037013
0.01218872 -0.0035659259 -0.0006801206 0.17601089 0.16734602 -0.09645983 0.15498136 -0.13997968
-0.18562332 -0.0021809838 0.016217193 -0.08623723 -0.1554516 -0.15733537 0.13327911 0.18236935
0.083134 0.11297148 0.15204224 -0.028732907 -0.19205752 -0.007891929 -0.004391649 0.037944313
-0.073083 -0.12485225 -0.060530014 -0.07223549 0.045167442 -0.06965833 -0.13720538 -0.08735497
0.019024748 -0.059269987 0.13667889 0.083960555 -0.19562384 0.11308072 0.11704808 -0.080622286

bias_hh_l0 f4 [192]
00000000: c8f6 ef3d 82e4 a53c d23d 1b3d 6a83 8a3d
00000010: dc8e 743b e44e e1bc cc53 813d 6694 c8bc
00000020: bbe1 64bd 9567 1c3d 1638 08bc 73af e03d
00000030: 818e 6f3d 9886 7d3d e8a8 4d3d b5f4 9ebc
00000040: 8df1 433c 11d8 273e 0480 083d e356 2cbd
00000050: af63 a73d 3921 643d 9bd0 463d 8547 aa3c
00000060: b4ae b3bd 2d77 19bb 8beb a2bc dca6 c13d
00000070: 5f54 903c 8409 3f3d 7683 8fba 5536 4e3d
00000080: 3896 973d 7013 17bd 6d0b 353d 2f82 b63d
00000090: 8db3 393d d268 443c 794b 863d 2162 7c3d
000000a0: d6bd e73c 3d93 203d 2cb9 923b 2a6a 793c
000000b0: 43ed aa3d 6662 54bd 0193 a2bb 159b 1a3c
000000c0: 2ef5 083e 6614 853d 8d52 df3d 057b 473c
000000d0: 3243 4dbd 70d0 b53c dacc 923d b8fa 19bc
000000e0: 57b1 0d3d ac96 afbd bfd4 fc3c 9e86 11bd
000000f0: 8c22 e53d db5d 903d 1a48 ba3d 37b3 193d
00000100: be0e a2bd 23ad 133d c088 c7bd f87e 89bd
00000110: 0c9b d3bc dd88 6fbd 49e8 90bb 7042 8ebd
00000120: bcc7 35bd 0209 003c 9980 133d 8097 eeb8
00000130: fa20 96bc 5233 de3c 4ab4 273d 948e 7c3d
00000140: 0cec cdbb 956b a1bc 9058 6ebd 4a0b 4dbd
00000150: 2db6 8c3c 1fb6 cdbc 2a0b f0bc 60c7 ccbd
00000160: 276f 03bd 365b 81bc 199b 7cbd e81b dfbd
00000170: 74ab 083c 787e 1e3c 5b64 c4bd 0269 593d
00000180: 98b5 c3bd bf3c a4bd f268 e7bd a1e8 1bbe
00000190: d57b d93c c188 95bd d5ed 4abd 739f 063d
000001a0: 3e3c 9bbd 3254 99bd 7957 0bbd 2d68 54bd
000001b0: ca51 50bc 0bae 76bd 0fe0 b9bc 7f7b 02be
000001c0: d83c 1fbd 0e3e 993c bdd3 24bd 1c52 e4bd
000001d0: 5773 dabd 50ed 0abd 3a21 96bd 0db3 f5bd
000001e0: 2760 25be 133c 65bd c2fd b33c 1e93 03bd
000001f0: 94ce 923c 0620 6abd f38d 92bd 83ab 8fbd
00000200: 9e25 563e a079 343c c769 213e 644a 70bd
00000210: 62cd b43c 5801 09bd 89dd 6cbd 3523 033c
00000220: 626b f0bd abb9 86bd 33d3 e13d 0733 e0bd
00000230: ef22 10be 3128 113e 2d6d adbd 3739 bdbd
00000240: 4ff2 96bd a0ca dc3d 5b33 f8bc 5f6a 9abc
00000250: b442 36be 645e 58bc a408 e53d 904a 773d
00000260: 64f7 b03c 86da e6bc 3d19 b9bc ce84 8a3e
00000270: fb3b 093e 105e 02be f3b0 373e c5f2 d0bd
00000280: 507e 22be 4468 debc 0ee2 cc3c 301d 08be
00000290: 596f f6bd fa2b 15be 4b89 ae3d e2c6 043e
000002a0: f267 dd3d f67a 4e3e 78df 0b3e c6ff 1dbd
000002b0: 0870 34be 4daf 853c 9c72 8dbb 010e 673b
000002c0: 479f c1bd 9fc6 cabd 8734 cbbd 2d0f 39bd
000002d0: 441a 873d 3e23 81bd 60bd 2abe b506 d2bd
000002e0: 8b0c 683c 74ac 79bd 81aa e73d 875b 783d
000002f0: bc3d 1ebe d497 f53d c0ea 3e3e d03a b9bd
0.11716992 0.020250563 0.037900753 0.067633465 0.0037316596 -0.027503438 0.06314811 -0.024484824
-0.055879336 0.03818472 -0.008314153 0.10970964 0.05848551 0.061895937 0.05020991 -0.019403795
0.011959446 0.16391017 0.03332521 -0.04207505 0.0817331 0.055695746 0.048538785 0.020786056
-0.08773556 -0.0023416982 -0.019887706 0.09455654 0.017618356 0.046639934 -0.0010949213 0.050344784
0.07401699 -0.03688377 0.04420035 0.08911549 0.04533725 0.011987882 0.06557364 0.06161702
0.028288763 0.039202917 0.0044776406 0.015223065 0.08346035 -0.051851653 -0.004961372 0.0094363885
0.13374779 0.06498031 0.10904417 0.012175326 -0.05011291 0.022194117 0.071679786 -0.009398155
0.034592953 -0.0857366 0.030863164 -0.03552877 0.1118823 0.070491515 0.090957835 0.03752443
-0.07912968 0.036053788 -0.0974288 -0.067136705 -0.025830768 -0.058480132 -0.004422222 -0.06946266
-0.044379935 0.007814648 0.036011312 -0.000113769434 -0.018326271 0.02712408 0.04094342 0.06165941
-0.0062842425 -0.01970462 -0.05818993 -0.050059594 0.017176712 -0.025111256 -0.029302198 -0.09998965
-0.032088425 -0.015790563 -0.06167135 -0.108939946 0.008341659 0.009673707 -0.09589454 0.05307866
-0.09556121 -0.08019399 -0.112993136 -0.1522546 0.026548306 -0.07301474 -0.04954322 0.032866906
-0.0757985 -0.07486762 -0.034018967 -0.051857162 -0.0127148125 -0.060224574 -0.022689847 -0.12742423
-0.038876384 0.018706348 -0.04024099 -0.111484736 -0.106665306 -0.033917725 -0.07330556 -0.11997042
-0.1614996 -0.055965494 0.021971587 -0.032122724 0.01792077 -0.057159446 -0.07155981 -0.07015135
0.20912787 0.011015326 0.15763007 -0.058664694 0.02207059 -0.033448547 -0.05782846 0.0080039995
-0.11739232 -0.06578382 0.11026611 -0.10947233 -0.14075826 0.14175488 -0.08468089 -0.092394285
-0.073704354 0.10780835 -0.030297926 -0.01884955 -0.17798883 -0.013206098 0.11183289 0.060373843
0.02160234 -0.028180372 -0.022595042 0.27054447 0.13401787 -0.12731194 0.17938595 -0.102025546
-0.15868497 -0.027149327 0.025010135 -0.13292384 -0.12032957 -0.14567557 0.0852228 0.12966493
0.108108416 0.20164093 0.13659465 -0.038574003 -0.17620862 0.016318941 -0.004316641 0.003525615
-0.09454208 -0.09901165 -0.09922128 -0.04518049 0.06596807 -0.0630555 -0.16673803 -0.102551855
0.014163147 -0.06095548 0.11311818 0.060634162 -0.15453237 0.119918495 0.18644238 -0.09044421

weight f4 [64, 64]
00000000: 4fe0 4bbe f2d0 123e 6b76 4fbe 50f6 76be
00000010: 39d4 81be 2c43 27be d10a 20bd 90f9 123e
00000020: 08e8 a83d 61c4 423d 941b 333e d688 ac3d
00000030: 8f40 71be 5384 6f3e a289 e33d cf03 0fbd
00000040: 9121 853e 00d4 aa3d c2e0 bfbd 17c3 af3e
00000050: 1d18 183d 1e3e 953d 1cff 893e c31f 0c3e
00000060: f6cb babd 5836 063c 0327 86bd f068 c9bc
00000070: dc09 e53e 0e37 ec3c f1ad 7f3d b018 093e
00000080: 1424 ab3e d087 85be eff7 893e 4b95 2dbe
00000090: a501 08be c823 e2bd 6d90 95be eef3 acbd
000000a0: 9030 95bd 900e 92be a814 833d cccd 64be
000000b0: 0048 0abe f86e 373e d67b 06be 83fe 9a3d
000000c0: 9dd7 5f3e 5ed7 b63d 911b 323e d0e7 0bbe
000000d0: 0120 50be 75f6 cabd afd4 a93d 1332 f1bb
000000e0: 1b0f 3ebc c06f 983b e6d5 093d da29 db3d
000000f0: b787 973d 8794 7f3e 1d3f f6bd 9755 6fbe
00000100: b7b1 353e 1667 c13e 5795 1a3e 8e5a af39
00000110: f7d5 2abd 3193 5a3e d2b1 af3d efd4 453d
00000120: 978f c7bd eafa 203e 3fc3 7fbb f414 5c3d
00000130: 7d94 14be 78dd 50be 234b cbbd 46f0 5dbd
00000140: 5994 ed3d 87ec d1be c09e 86bd 6cc1 593e
00000150: f41c 3c3e 78e8 eb3d 0bb2 b9be d042 89be
00000160: 94e5 72bb 1b0e 053e 62b3 ac3e 05e9 9d3d
00000170: 9274 853e 3b3a d13b e2db 963d 6d21 803d
00000180: fe48 3ebe a25b 53bb 8dda 7c3b 3903 363d
00000190: c673 543e a41c a23c 310e ee3c c7f9 983b
000001a0: 3763 1fbe 2eb4 b5bd 8f14 2e3e 9d06 80bd
000001b0: 100c 3b3e 579e 5abe 1cc9 37be 5bd1 6c3e
000001c0: 7c00 c63d caa0 a63e ed6d a3be 2a92 073e
000001d0: 1b5f 173e ca37 87be 2d2a a53b 0fdf 283b
000001e0: 5422 3e3d 7528 98be 946f 32bd d922 d93b
000001f0: 37cb 9d3e 0400 a6bd 6583 3abe c6cf f8be
00000200: b706 acbc 5329 883e 9882 d33d bfa8 b7bd
00000210: 9d85 4e3d 88dd 31bd 61e6 fa3d 9b77 d93e
00000220: 0dda 643e fd6a 803d e3ff 01be d2a7 d23e
00000230: 3790 133d bd1b 29be bfc7 5bbe e883 953c
00000240: 85b1 1cbc 4b23 f4bc e594 f03c 6f91 a8be
00000250: bb97 20be 0ef2 ed3d 4758 d8bd 5645 a0be
00000260: 12f4 c2bd 2dc9 383d 3e4c 3b3e ae66 fb3c
00000270: 9a6c 7cbd ee78 5ebe a571 913d 3865 8e3d
00000280: 2a6d ab3e 8447 383d 6fc2 cebe ddaa b83d
00000290: b11e f53d 91f9 96be bb03 19bd 9a61 03bf
000002a0: 8349 4fbe 0e1a 33be 7d31 85bd 0a7d aebd
000002b0: 4d04 96bd 81ce c23d b84d 4abe 4a13 c13d
000002c0: 5624 00be 884c fb3d e9f3 d73e 4db9 11bd
000002d0: f401 cd3d dabf 1abe 3f0e 31be edb1 d83d
000002e0: e699 4c3e b011 bc3d db48 5bbe eae5 acbd
000002f0: 3619 803e dfb7 323e 2d46 81bd b55f a03d
00000300: 7395 a8be c026 7dbc d9eb 493e 8eac 4c3d
00000310: d1df 303d f293 cf3c b941 35be 575a 8d3e
00000320: bc44 983c ed8c e6bd 9462 83bd 6f84 dfbd
00000330: a05a 3c3e 7c6f 673c 026f 15bd d683 9abc
00000340: 05a2 3e3e 1168 7fbd e68b 54bc 8a51 723d
00000350: 6655 413e 478b 5dbc d925 92be 9808 f63d
00000360: 617c 683d 14b9 4dbd 591f 86be 8f02 5f3e
00000370: b983 c3be 7112 9bbe 4997 683e d9be 113f
00000380: 2320 9f3d 76a9 803c 9e37 713e 20c8 ed3e
00000390: d249 ee3d c3f7 c93c 8a62 59be 91fc 89be
000003a0: 67f5 0cbe 6030 c2be 44c9 f93d 3c39 cc3d
000003b0: b98e 813d 5bc4 84be 9ed2 cb3c edee 1c3e
000003c0: 630e 07be b59d 153e 6024 1fbd 3a07 aabd
000003d0: 1dff 6cbe 0973 b43c 4514 7ebd d4fa 0fbe
000003e0: f189 e0bd 74fb f9bb 2d98 5abe 66b3 73bd
000003f0: f9a3 483d 4b61 8ebd 6a98 13be 3e53 c1bc
-0.19909786 0.14337519 -0.20260017 -0.24117398 -0.25357226 -0.16334218 -0.039072815 0.14353013
0.082473814 0.047550563 0.17490989 0.08424537 -0.23559783 0.23390321 0.11110236 -0.03491574
0.26002172 0.08341217 -0.09369041 0.3432853 0.03713237 0.072872385 0.26952446 0.13683991
-0.09120934 0.0081916675 -0.0655041 -0.02458617 0.44734085 0.028834846 0.062421743 0.13388324
0.33425963 -0.2608018 0.2694697 -0.16951482 -0.13281877 -0.11041981 -0.2921175 -0.084449634
-0.07284653 -0.28526735 0.06400424 -0.2234413 -0.13504028 0.17913425 -0.13133177 0.075680755
0.21859594 0.08927797 0.17393328 -0.13662648 -0.20324709 -0.09910289 0.08292519 -0.0073607056
-0.011600281 0.0046519935 0.033651255 0.10701342 0.073989324 0.24959002 -0.12023757 -0.23372494
0.17743574 0.3777396 0.15096031 0.0003344607 -0.04170796 0.21345212 0.085788384 0.048298772
-0.097441845 0.15720716 -0.0039026288 0.05373092 -0.14509769 -0.20396984 -0.099264406 -0.05418422
0.11600561 -0.4100077 -0.06573248 0.21265191 0.1837042 0.11518949 -0.36268649 -0.26808786
-0.0037063109 0.12993662 0.33730608 0.077104606 0.260655 0.0063851154 0.07366158 0.062563755
-0.18582532 -0.0032250662 0.0038582415 0.044436667 0.20747289 0.019789048 0.029059501 0.0046684477
-0.15565191 -0.08872257 0.1700003 -0.062512614 0.1826632 -0.21349464 -0.17947811 0.23126738
0.09668061 0.32544547 -0.31919804 0.13239351 0.14782374 -0.2640975 0.005040428 0.002576772
0.046419457 -0.29718366 -0.04356344 0.0066264686 0.30819103 -0.08105472 -0.18214186 -0.4859602
-0.020999296 0.26594028 0.10327643 -0.08967733 0.050420392 -0.04342416 0.122509725 0.42474064
0.22348805 0.062704064 -0.1269527 0.41143662 0.036026206 -0.16514488 -0.21462916 0.018251374
-0.009563808 -0.029801985 0.029367873 -0.32923457 -0.1568288 0.11618434 -0.105637126 -0.313029
-0.09519209 0.04511373 0.18290803 0.03068861 -0.061627008 -0.21725819 0.07101754 0.069529
0.33481723 0.044990078 -0.40382716 0.090169646 0.119687445 -0.2948728 -0.037357073 -0.51320803
-0.20242886 -0.17490408 -0.0650358 -0.08519943 -0.07325039 0.09512044 -0.1975621 0.09427507
-0.12513861 0.122704566 0.42178276 -0.035577107 0.10010138 -0.15112248 -0.1729059 0.10580812
0.19980583 0.09183061 -0.21414511 -0.0844229 0.25019234 0.17452954 -0.06312213 0.07830755
-0.3292652 -0.015451133 0.19718875 0.04996925 0.043182198 0.0253391 -0.17700852 0.27607986
0.018587463 -0.11257348 -0.06415287 -0.109139316 0.18393946 0.014125701 -0.03648282 -0.018861692
0.18616493 -0.062355105 -0.0129728075 0.059159793 0.18880233 -0.013521976 -0.285445 0.12013358
0.056759242 -0.050225332 -0.2619579 0.2177832 -0.38186434 -0.30287507 0.2271396 0.56931835
0.077698015 0.015705805 0.23556373 0.46441746 0.11635174 0.024654275 -0.21228996 -0.26950505
-0.13765489 -0.37927532 0.121965915 0.09971854 0.0632605 -0.25931057 0.024880704 0.15325518
-0.13189082 0.14610942 -0.03885305 -0.083021596 -0.23144193 0.02202751 -0.06203105 -0.14060527
-0.1096381 -0.0076288525 -0.21347113 -0.05949726 0.0489845 -0.06952151 -0.1441361 -0.023599263

bias f4 [64]
00000000: 1969 30bd 6a95 0dbe 54dc 20be 17ca 19be
00000010: 5975 223e d7b9 f83d d696 2f3c 0cbe 2a3e
00000020: f284 cfbd df42 a93d 2af4 203d 1aaf cc3d
00000030: aadb 07be 091c 80bd e932 f63d 4847 a83d
00000040: 9bcc d53c 6681 1abe 2869 f63d d50e f5bd
00000050: cf9d 053e 2eff 13be e5b9 07be 62a9 593d
00000060: b1c3 f3bd ca3f b83d 6003 0fbe 6ede 0abe
00000070: e953 e33d f80d 263d d58c 0c3e cb8e eabd
00000080: 1bc4 d6bd fa57 0bbe 86e6 0bbe 1636 33bc
00000090: 7f74 d83d 2df0 163e 999f e4bd 112a c6bd
000000a0: 9107 07be d2d3 193e 46b8 07be 1662 42be
000000b0: fc6c 193e 0922 17be 3207 2abe 7847 1e3e
000000c0: d851 25be ac77 123d aeaa ed3d b1ef 17be
000000d0: f7d1 ed3d 05c7 233e 7a19 18be 0575 62bd
000000e0: 0e51 003e 3726 d63d bba9 103e d9ee 0c3e
000000f0: e64e ae3d 19ac f7bd b508 0a3e d3d0 2bbe
-0.04306898 -0.13826528 -0.15709049 -0.15018497 0.15865077 0.12144821 0.010717114 0.1667406
-0.10132779 0.08264708 0.039295353 0.099943355 -0.13267389 -0.06255347 0.12021429 0.08216721
0.02609854 -0.15088424 0.12031776 -0.119657196 0.1304848 -0.14452812 -0.13254507 0.05314005
-0.119025595 0.08996542 -0.13966131 -0.13561413 0.11099989 0.040540665 0.13725598 -0.11453017
-0.10486623 -0.13607779 -0.13662156 -0.010938188 0.10569095 0.14740057 -0.11163253 -0.09675992
-0.1318648 0.1502221 -0.13253888 -0.1898273 0.1498298 -0.14759077 -0.16604307 0.1545695
-0.16144502 0.03575866 0.1160482 -0.14837529 0.11612313 0.15993889 -0.14853469 -0.05528738
0.1253092 0.10456508 0.14127247 0.13762988 0.085111424 -0.12093372 0.13479884 -0.16778879

weight f4 [64, 64]
00000000: 394e eebd 9cb2 463c 4c70 6dbe 996c adbc
00000010: 8e02 1bbe 5a23 a9bd baf1 893e 8a75 68be
00000020: 4a52 41be c5d5 743d d781 8a3e b357 a5be
00000030: 14c7 c2be c5ff 633c cdbd 1b3e e7af 643d
00000040: 8667 f83d 2adc cc3e 16e6 ab3c 46e3 4e3e
00000050: 3339 9bbe b699 ce3c 727e e3bd e577 7abd
00000060: 4d9a 813e 58fe 423e 6f3d a7be d6da 1cbd
00000070: 6519 283d 128d 82bd 0ab8 863e 74f7 60bd
00000080: 91e6 323d d7b7 8a3d 29fb f13d cf66 d73c
00000090: e909 2abe a39e 713d 452e d0bd 2bf5 a1bc
000000a0: 9d63 2ebe a4a3 c03d 2e21 83bd e0b6 9abd
000000b0: ee36 9a3e 09a3 4fbe 93b2 9bbd 5b02 573e
000000c0: e6d6 62be 187d a8bd cb09 b1be b03e bfbd
000000d0: b18d 913e 6ca2 6bbd 45ee a2be 5511 70bc
000000e0: 9202 c63e d8d6 9fbd a3e5 273e 1b5b 613d
000000f0: 937b 093d 1bcf 83be e31f 25be 3da5 293d
00000100: d0d8 debd ba29 1e3e 4204 88be c428 9dbd
00000110: 44f3 153e 05de 8bbe 001a 2ebe b7c6 9ebc
00000120: 699f 113e 2002 173e 9723 c2bd ebfe 0f3e
00000130: c362 db3c 8e86 15be 9ebb 95bb 7744 2fbd
00000140: c381 dc3d 705d 5dbc ebda a8bd 60e7 3e3e
00000150: c5d5 563e d90a cebd 5d8a b3be dcfa 493e
00000160: d5e8 44be abb7 00be a952 2a3e 48c7 91be
00000170: 2487 833e 9ed8 cabe fbce 003e 0dea 93bd
00000180: 8dd9 adbe 2e65 63bc 55c6 17be f475 b53d
00000190: 9b17 61be 8c30 2d3e 3bfc 4abe 8372 d5bd
000001a0: 0779 a33e 4e3e f73d 8fa8 5ebd c895 d7be
000001b0: e7b3 083e 65a0 96be a8d7 0ebc 8327 423d
000001c0: e39b 26be 8a34 a2be a800 77bd dbd2 a13d
000001d0: ce25 6a3d 0355 aa3e 553d 5fbe 7eb8 253e
000001e0: f75e b33d 20a9 b5bd 8212 743e 54f9 ab3e
000001f0: 9490 823e 7473 b7be de25 07be af50 4cbc
00000200: 0721 74be 7f97 d83d c8c2 c1be 4317 973d
00000210: 4172 32be 95cb c9bd fdc7 343e a047 623e
00000220: 2f0c 8abd 6295 0b3d c6e8 6cbe ac5f 97be
00000230: 9528 993e 2eea c23d 8053 8bbe 9aea 9c3d
00000240: cb1b a2bc da24 c53d a8de ecbd 8675 d93d
00000250: 47b0 a1be c7be b53d df14 bc3d 95e4 2cbe
00000260: 8f13 803d e7bd a83e 24f7 3d3d a12d 9c3d
00000270: f2dd e8ba 8843 583e c68a e93d 4ca1 99be
00000280: 5e82 b03d 30f6 223e 5e2e 7d3e 283a a3bd
00000290: 5df9 1ebe 7d9f b6be e7f3 b6bd 04d5 71bd
000002a0: 36ad cf3e 8801 f2bd 7034 8d3e 259d 973e
000002b0: a05f 76be 1e1d 63bd 56e4 c43d 39af e0bd
000002c0: 452a b2bd 7160 4e3e ef37 983e 5ac8 86bc
000002d0: 2b99 4fbe cf41 223e eec5 703e 09f0 9c3d
000002e0: fe4f 72be 61d8 863d 295a 003d 7499 49be
000002f0: 174c 3d3e 42c1 923e df4a 73bc cddc 4e3e
00000300: 9daf b13d 3fe5 853e 4b55 00bd e93b 7c3d
00000310: 82cf c9be 1d62 c33a 071a 2bbe 923c 3ebc
00000320: d1b8 d7bd 786c 493e 7a4c 99bd e486 703d
00000330: ac9a 453e cf29 d73e be0c 4dbe da99 093e
00000340: f834 2bbe 3f18 abbd ff93 b63d 160a 023e
00000350: 6dd4 c9be 053d c53d 0c4d 003e 48fe 893d
00000360: 00da 393e d45c 71bd e1e0 073f 02c3 333e
00000370: 64a5 12be 33af b0bd 7e8a bfbd e00c eb3d
00000380: 7aca 35bd 43c5 cdbe f50c a13c a755 84bd
00000390: a49b bfbd 3954 3a3e 94fd f73d 02ef fd3b
000003a0: 8e8f 283e e59e d83d d930 293d e6fd a43e
000003b0: f3c1 49be 3a52 883e e167 983e 9c85 c1be
000003c0: df7f 89bc 4721 bcbc 8b95 74be 9568 c53d
000003d0: 861f a5bc 7a7c debd 66dc 083e 3d76 91bd
000003e0: 5cef 2e3e e15b f5bb 212c a8bd 964a 80bc
000003f0: 1613 93bd bf8b 57be 92bd 613d df52 f33d
-0.116360135 0.012127545 -0.23187369 -0.021169947 -0.15137693 -0.08258696 0.26942235 -0.22701088
-0.18879047 0.05977418 0.27052185 -0.32293472 -0.3804251 0.013915961 0.15209122 0.055831816
0.121291205 0.40011722 0.020983737 0.20203885 -0.30317077 0.02521978 -0.11108102 -0.061149497
0.25313035 0.19042337 -0.32664058 -0.038294636 0.041039843 -0.06374563 0.26312286 -0.05492349
0.043676917 0.06773346 0.11815483 0.02629414 -0.16605343 0.05898918 -0.10165075 -0.019770226
-0.17030187 0.09406212 -0.06402813 -0.07554412 0.30120033 -0.20277037 -0.0760242 0.20996992
-0.2215229 -0.08226985 -0.34577784 -0.093381286 0.28428414 -0.057527944 -0.3182241 -0.01465257
0.38673836 -0.0780465 0.16396193 0.055018526 0.033565115 -0.25743946 -0.16125445 0.04141735
-0.108811975 0.15445605 -0.26565748 -0.07673791 0.1464358 -0.27317825 -0.17002106 -0.019381864
0.14220966 0.14746904 -0.094794445 0.14062087 0.026780492 -0.1460211 -0.004569485 -0.042789903
0.107669376 -0.013511047 -0.0824488 0.1864295 0.20979984 -0.10060663 -0.350665 0.19724602
-0.19229443 -0.12570064 0.16633095 -0.28472352 0.25689042 -0.3961839 0.12578957 -0.07222376
-0.3395504 -0.013879104 -0.14821751 0.088603884 -0.21981661 0.1691305 -0.19822781 -0.10422232
0.31928274 0.120724306 -0.05435997 -0.42106462 0.13349877 -0.29419246 -0.008718409 0.047400963
-0.16270404 -0.3168071 -0.06030336 0.079015456 0.05716496 0.33267984 -0.2180074 0.1618366
0.087583475 -0.08870149 0.23835185 0.3358866 0.2550093 -0.3583027 -0.13198039 -0.012470408
-0.23840724 0.105757706 -0.3784392 0.07377484 -0.17426397 -0.09853283 0.17654414 0.22097635
-0.06740605 0.03407801 -0.23135671 -0.2956518 0.29913774 0.095173225 -0.27212143 0.07661934
-0.019788643 0.096261695 -0.11565906 0.10618119 -0.315798 0.088742785 0.09183668 -0.16884072
0.062537305 0.32957384 0.04637827 0.076258905 -0.001776634 0.21119511 0.11403422 -0.30005872
0.086186156 0.15914226 0.24724719 -0.07970077 -0.15524812 -0.35668555 -0.089332394 -0.05904104
0.40561837 -0.11816698 0.2757907 0.2961208 -0.24059916 -0.05544769 0.09613864 -0.10970921
-0.086994685 0.20153977 0.29730174 -0.016452957 -0.20273273 0.15845416 0.23513004 0.076629706
-0.23663327 0.0658424 0.031335983 -0.19687444 0.18486057 0.2866307 -0.014849394 0.20201416
0.08676074 0.26151463 -0.03133134 0.061580572 -0.39416128 0.0014906559 -0.16709147 -0.011611121
-0.10533298 0.19670284 -0.0748529 0.05872239 0.19297284 0.42024085 -0.20024392 0.13437596
-0.16719425 -0.08354234 0.08914947 0.1269916 -0.3941988 0.09630779 0.12529391 0.067379534
0.18149567 -0.05892642 0.5307751 0.17554858 -0.14320904 -0.086271666 -0.09352587 0.11477065
-0.04438255 -0.4018956 0.019659499 -0.064616494 -0.09355858 0.18196191 0.12108913 0.007749439
0.16461012 0.10577182 0.04130635 0.3222496 -0.19702892 0.26625234 0.29766753 -0.37797248
-0.016784607 -0.022965087 -0.23885171 0.09639088 -0.020156633 -0.10863586 0.13365325 -0.0710263
0.17083496 -0.0074877595 -0.08211542 -0.015660565 -0.07181375 -0.21049403 0.05511243 0.11881041

bias f4 [64]
00000000: 5c47 bc3d f05b 033e f694 16be 3e98 0cbe
00000010: 97c7 18be a3c6 043e 1406 22be 35de 1b3e
00000020: 3437 d03d 4991 e1bd 76bf 263e 9656 103e
00000030: 4956 f5bd 86e5 013e e4f0 053e ce6c 1d3e
00000040: 9fa2 fdbd 75eb fc3d eac0 dcbd 66e3 1bbe
00000050: 2e58 a73d 6f0a f43d 4e9b 1b3e 200a bf3d
00000060: 1071 053e 5a08 c83d 8ec9 033e be8a b33d
00000070: 2dcf 00be 3a39 f5bd 09de fc3d f4d7 90bd
00000080: 1d0a 123e 529e e6bd dc78 e9bd 5fb7 d93d
00000090: 2cb9 fa3d 2e9b a5bd ebcc 08be 5c35 14be
000000a0: b6f2 103e 01a0 1a3e 2421 02be ce37 e83d
000000b0: 3476 bdbd 1390 12be 651f c7bd 1c7e 10be
000000c0: 9e42 093e 91f6 053e ac83 d9bd b1c8 c93d
000000d0: 5bcb 613d d9fd f33d 3265 0b3e cf50 20be
000000e0: 762d fabd 3de0 d4bd a8f7 09be 7448 e73d
000000f0: 8d2d 2a3e 20ee 1a3e 581a 203e 189a 0a3e
0.09193298 0.1282804 -0.14705262 -0.13729951 -0.14919887 0.12966399 -0.15822631 0.15221484
0.10166779 -0.11014039 0.16283974 0.1409553 -0.11979348 0.12685212 0.13080174 0.15373537
-0.12384533 0.12349597 -0.10778983 -0.15223464 0.08171116 0.119160526 0.15195963 0.09328103
0.13031411 0.09767218 0.12869856 0.08766697 -0.12579031 -0.11973806 0.12347037 -0.0707244
0.1426167 -0.11260666 -0.11400005 0.106306784 0.1224235 -0.08086239 -0.1335942 -0.1447348
0.14155087 0.15100099 -0.12707955 0.11338769 -0.09251061 -0.14312772 -0.09722785 -0.14110607
0.13404319 0.13082339 -0.106208175 0.09852732 0.055125576 0.11913652 0.13612822 -0.15655826
-0.12215702 -0.103943326 -0.1347338 0.11293116 0.16618939 0.151299 0.1563505 0.13535345

weight f4 [64, 64]
00000000: 57b4 aebe 43db 4abd f653 73be 10df 9abd
00000010: 8436 64be 14c2 02be 483e 2bbd 94ea adbd
00000020: d7dc 0c3e ee30 fbbd 2e8a 833e 926c 5b3d
00000030: f2a6 b63e 0216 2bbe 5d23 8b3d 09b0 c9bc
00000040: 1616 e23d fccb 9cbe 420b 23be 2db7 353e
00000050: 8170 f7bd 3fd5 d6bd 680e 82bd ff67 83be
00000060: 0a92 b0be 7c9a 0dbe 7e49 70be 4e16 a0be
00000070: 88e2 7dbc a0b2 0abe 81d6 5cbe c49d 13be
00000080: 9377 e3bd 5e94 38be b4ff 823d 2845 7d3d
00000090: a9cd 57bd 360a c23d b678 d93b 8569 56be
000000a0: 40cc ae3e c6e0 04be 9a6c 353e 7023 d6bd
000000b0: 9786 63be a8b6 dfbc 6d01 81be e49b c7bb
000000c0: d639 8abe a618 03be 7852 923e 919e 8b3e
000000d0: 3db9 a93d 584e 73bd 4334 1bbe 7aaf e43d
000000e0: b6a1 0bbe b4ae 8ebe 7a46 6cbe 1d2b 16be
000000f0: 852c 823c 2307 ff3c c258 6ebd c5a5 1ebe
00000100: d804 5c3e 95a5 cabd dbf8 99bc b992 163e
00000110: cbcc 84be cde9 05be b838 8dbc 0d0d 773e
00000120: 7608 073e b08f 0fbd 6963 953d bbf3 bf3d
00000130: dfd4 b3bd bbe4 6b3c 4b5e 0cbe d809 083b
00000140: 4530 8cbe 49af 153e ce75 8b3d 731d 44bd
00000150: a2c8 93be c39b 083e d3ef b2bb 98a7 4cbb
00000160: 60bc 06be 5ac6 993d 1c05 cc3e 475f 4f3e
00000170: 82ac 393e bf42 babd 5b87 5b3e 6a32 35be
00000180: 7e55 f3bd 61be 54be 18e3 b6bd cf20 12be
00000190: 5dfa 1d3d ce55 793d 0998 8fbd a009 a1be
000001a0: 8f9f ab3d 4743 99bc ada1 ce3d b04c e2bb
000001b0: 51a5 8abe 4814 01bf 19aa b33e ae46 053e
000001c0: 65f3 7b3e a5ab 1fbe 60d1 8f3e 3f38 c6bd
000001d0: 7317 e7bd dad4 d2bc 5004 0f3e b362 1b3b
000001e0: ea4f 56be ac53 f9bd bd42 5d3e 29d3 5abd
000001f0: c182 e8be 858d c23d 07cf 233e bcb5 003d
00000200: b994 553e e911 af3b d23b 5cbd 2bd4 58be
00000210: 113a 44be 14ab 103e 1dab 2ebd 8176 543d
00000220: 2827 85be 2b6f b9be 577e f3bd b1b5 73be
00000230: 8d70 b8be afd2 783e e40e 77bd 1bd8 b2bc
00000240: e851 c2bd 2581 48bd a024 12bd 6f02 ffbb
00000250: dce9 18be 49d8 99bc b6c6 33bd 8c83 96be
00000260: 1a04 6fbd e072 503b 1887 37bd 5492 e9bd
00000270: 6420 483d e0b4 0cbd f9ef 0dbe d51c 3fbe
00000280: 2db4 043e 24e5 6b3e 2f07 8a3c c0b0 a73e
00000290: 1f7c 5ebd f38f 74bd 7d2d b43e 7cb0 77be
000002a0: dfdb a33e ed67 8d3c 2c43 c7bd 77b1 d73d
000002b0: b507 1d3e 243d a9be ecd1 93bd c152 7abd
000002c0: 3fd5 9cbd a311 eb3e b013 f13d 3d15 8fbd
000002d0: fba3 893d c6cf e9bc 89f2 403e 3d2d 9fbe
000002e0: 12e8 9b3d db45 bebd 922e 3ebe 3ff5 293e
000002f0: 3638 5abe ae37 58be 13a6 d63d f503 9dbd
00000300: cc0a f13d 9ec9 373c e0e9 ce3d af55 8cbd
00000310: 2d3d 37be d055 b43e 5977 bfbd 51c5 eb3d
00000320: cc24 21bd 5248 8cbe aab1 3f3e 0244 63be
00000330: b27b b7bc 5a2a 9cbe 25bb 53be 44c6 683e
00000340: 0fbb 9cbd 8098 0cbe 0ad7 d53d 4461 c8bc
00000350: 36ef 143e d2d7 0c3e e575 013e 7ceb 7e3e
00000360: fd66 b83d e50d e0be 798a 603e cb28 183e
00000370: 2bb6 16bd 051b 94be 7b16 18be 5bc3 6c3e
00000380: 238b d43d ad84 7bbd 39ef e43d 838d 033e
00000390: 18c6 243d bed5 e73d 6df9 39be b02e 943b
000003a0: ef22 46be d548 f3bd 98e9 ccbd 1d3e 5bbc
000003b0: 98e9 30be 92a2 33be 597e f93d c70f 0b3d
000003c0: 35f8 91be cc8d 903e 6510 c1be d865 a03e
000003d0: 733f 05be 5cab cc3c dfdb d73d a54f 443e
000003e0: 0aad 2bbe 57d3 3c3e f08f bcbd 4871 edbc
000003f0: 5096 753e bbeb 9c3a f1b1 9e3d 6d75 6abe
-0.34121963 -0.04952551 -0.23762497 -0.07562077 -0.22286421 -0.12769347 -0.041807443 -0.08492008
0.13756119 -0.12265192 0.2569136 0.053570338 0.35674244 -0.16707614 0.067938544 -0.024620073
0.11039369 -0.30624378 -0.15922263 0.17745657 -0.12082005 -0.10489892 -0.06350404 -0.2566528
-0.3448642 -0.13828462 -0.23465535 -0.31267017 -0.015495904 -0.13544703 -0.21566202 -0.14415652
-0.11106791 -0.18025348 0.06396428 0.06183353 -0.052686367 0.09474604 0.0066367043 -0.2093869
0.34140205 -0.1297637 0.1771721 -0.10455978 -0.2221931 -0.027308777 -0.251964 -0.0060915817
-0.2699725 -0.12802371 0.28578544 0.27269414 0.082872845 -0.059400886 -0.15156655 0.11166282
-0.13635907 -0.27867663 -0.2307376 -0.14664884 0.01589037 0.031131333 -0.058190115 -0.15492924
0.21486223 -0.098948635 -0.018795421 0.14704408 -0.25937495 -0.13077469 -0.01723896 0.24126072
0.13186821 -0.03504914 0.072943516 0.0937266 -0.08780836 0.014397795 -0.13707845 0.002075782
-0.27380577 0.14617647 0.06809579 -0.047879647 -0.28864008 0.13340668 -0.005460718 -0.0031227823
-0.13157797 0.07508536 0.39847648 0.20251189 0.18132213 -0.09094762 0.21438353 -0.17695013
-0.11881541 -0.20775749 -0.089300334 -0.14270328 0.038568843 0.060872845 -0.0701142 -0.31452656
0.08380043 -0.018708838 0.10089431 -0.0069061145 -0.2707925 -0.5042157 0.35090712 0.13015243
0.24604566 -0.15592821 0.28089428 -0.09678697 -0.112837695 -0.025736261 0.13966489 0.0023709952
-0.20928922 -0.12174162 0.2160749 -0.053424034 -0.45412257 0.09499649 0.15996943 0.031423315
0.20857514 0.005342711 -0.053767987 -0.21174686 -0.19162776 0.14127761 -0.042643655 0.051870827
-0.26006436 -0.36217627 -0.11889332 -0.23799779 -0.3602337 0.2429912 -0.060316935 -0.021831563
-0.094882786 -0.048951287 -0.03567946 -0.0077822725 -0.1493296 -0.01877989 -0.043890677 -0.29397237
-0.05835352 0.0031806752 -0.04480657 -0.11404863 0.048859015 -0.034352183 -0.13861074 -0.18663342
0.12959357 0.23036629 0.016849129 0.32752037 -0.05431759 -0.059707593 0.35190955 -0.24188417
0.32003686 0.01726147 -0.09729609 0.105318956 0.15334971 -0.3305446 -0.07217774 -0.061114077
-0.07657861 0.45911893 0.11771333 -0.06986473 0.0672073 -0.028541457 0.1884252 -0.31089202
0.07612623 -0.092906676 -0.18572453 0.1659746 -0.21310505 -0.2111499 0.10480895 -0.0766677
0.117696375 0.011217503 0.10103202 -0.0685228 -0.1789443 0.3522172 -0.09348936 0.115122445
-0.039341733 -0.27398926 0.18720117 -0.22193912 -0.02239785 -0.30501062 -0.20676859 0.22731882
-0.07652866 -0.13730049 0.10441406 -0.024460442 0.14544377 0.13754204 0.1264263 0.24894518
0.090040185 -0.437606 0.21927823 0.14859311 -0.036794823 -0.28926864 -0.14852326 0.23121397
0.10378101 -0.061405826 0.111784406 0.12846951 0.04022798 0.11320065 -0.18161555 0.004522167
-0.19349264 -0.11879126 -0.10005492 -0.013381508 -0.17276609 -0.17542484 0.12182302 0.033950593
-0.2850968 0.28233182 -0.3770782 0.313277 -0.13012485 0.024984054 0.10539984 0.19171007
-0.16765228 0.18439995 -0.092071414 -0.02898468 0.23983121 0.0011972109 0.077487834 -0.22896357

bias f4 [64]
00000000: 0dfb 67bc 5ef8 5b3d 0dc5 bb3c a243 2cbd
00000010: 5f23 85bc 4c88 b63c 9b52 10bd 7f46 8cbd
00000020: f9f4 1d3d 12e2 4ebb 1a9a bdbc 1358 cc3d
00000030: d866 9e3c f6d8 2dbc 5a5a b2bd 6094 afbd
00000040: 2f50 cb3d 91f2 3abc b5d2 393d c0f1 6cbd
00000050: cd0d 95bc 00d8 6e3d 1a34 773d 94be c13d
00000060: 03dd 6f3d 28fc b2bc 9ec2 f3bc b0c8 d1bd
00000070: 3cdf fdbc 22f7 6ebd 3b26 9bbd 4e3a 8b3d
00000080: 6ad1 f7bb f752 253d 3ff0 513d 1e9a c8bd
00000090: d14c ddbc 3b15 2c3d 4025 013d 2db4 39bd
000000a0: 6e12 22be 6bd9 013e fd0b bcbd 6829 8c3d
000000b0: 68ae e53d 300d a6bd 11f7 aebd bfba 71bd
000000c0: 2f48 a73d 41d6 98bd 92c4 ccbd e3ce 3b3c
000000d0: baed 35bd 31ed 9cbd 36bb 713d 0514 0bbe
000000e0: 130f 45bd 62f2 6e3c b1dd a13c 8ecf babc
000000f0: 3e11 e03c 65b9 4abd 5f05 d63d c550 3fbd
-0.014158976 0.05370366 0.02292111 -0.042056687 -0.016252218 0.022281788 -0.03523503 -0.068493836
0.038563702 -0.0031567854 -0.02314477 0.09977736 0.01933615 -0.01061081 -0.087086394 -0.08573222
0.09927403 -0.011410371 0.04536696 -0.05784774 -0.018195057 0.058311462 0.060352422 0.09460178
0.058560383 -0.021848753 -0.029755887 -0.10243356 -0.030990236 -0.058341153 -0.07575651 0.0679823
-0.007562806 0.040362325 0.051254507 -0.097950205 -0.027014168 0.042012434 0.031529665 -0.045337845
-0.15827343 0.12680595 -0.09181974 0.06843835 0.11214906 -0.08107984 -0.08543218 -0.059015986
0.08168065 -0.07462741 -0.0999843 0.0114629 -0.044416167 -0.07662428 0.05901643 -0.13581856
-0.04811008 0.014584156 0.019759031 -0.022804048 0.027351972 -0.049493212 0.10450243 -0.046707887
